.dart_tool/chrome-device/Default/optimization_guide_prediction_model_downloads/87040129-8e14-4d9b-85fd-b8e05bfd00ee/model.tflite (tflite, 498468 bytes, 160 tensors)

context_transformer_0/bottleneck_input/norm/add;StatefulPartitionedCall/context_transformer_0/bottleneck_input/norm/add;context_transformer_0/bottleneck_input/dense/einsum/Einsum;StatefulPartitionedCall/context_transformer_0/bottleneck_input/dense/einsum/Einsum;context_transformer_0/bottleneck_input/norm/mul;StatefulPartitionedCall/context_transformer_0/bottleneck_input/norm/mul;context_transformer_0/bottleneck_input/dense/add;StatefulPartitionedCall/context_transformer_0/bottleneck_input/dense/add;12614;12616;12618 f4 [32]
0	0xbd2c333e	-0.042041056
1	0x3d29af22	0.041426785
2	0xbd7c3042	-0.06156946
3	0x3d8e04a4	0.06934479
4	0x3d071d24	0.032986775
5	0xbca63d8a	-0.020293016
6	0x3db094f3	0.0862216
7	0xbdbe2c81	-0.09285832
8	0x3d2ce578	0.042211026
9	0x3dfd0d36	0.123560354
10	0xbd6d0fa6	-0.05787625
11	0x3d908190	0.07055962
12	0x3de40b76	0.111349985
13	0xbe1828f7	-0.14859377
14	0x3c595cf8	0.013266794
15	0x3d5e8414	0.05432518
16	0x3c6f858a	0.014619241
17	0x3d42d6bc	0.047568068
18	0x3da32a46	0.079670474
19	0x3e4cc118	0.19995534
20	0x3d9f3248	0.07773262
21	0xbe065165	-0.13116987
22	0xbd969172	-0.0735196
23	0x3dbc672e	0.091993675
24	0x3c8c2879	0.017109143
25	0xbdfcfe24	-0.12353161
26	0x3d57cad4	0.052683666
27	0x3c873e38	0.01650916
28	0x3db63d66	0.088984296
29	0xbd2acbb2	-0.041698165
30	0x3cfb8710	0.030704051
31	0xbaf0c50b	-0.001836927

context_transformer_1/bottleneck_input/norm/add;StatefulPartitionedCall/context_transformer_1/bottleneck_input/norm/add;context_transformer_0/bottleneck_input/dense/einsum/Einsum;StatefulPartitionedCall/context_transformer_0/bottleneck_input/dense/einsum/Einsum;context_transformer_1/bottleneck_input/norm/mul;StatefulPartitionedCall/context_transformer_1/bottleneck_input/norm/mul;context_transformer_1/bottleneck_input/dense/add;StatefulPartitionedCall/context_transformer_1/bottleneck_input/dense/add;context_transformer_1/bottleneck_input/dense/einsum/Einsum;StatefulPartitionedCall/context_transformer_1/bottleneck_input/dense/einsum/Einsum;12706;12708;12710 f4 [32]
0	0xbe22d553	-0.15901689
1	0x3c961597	0.018320842
2	0x3d1e6998	0.03867492
3	0x3dc6b30b	0.097021185
4	0x3d5e42d0	0.054262936
5	0x3d6227a4	0.055213585
6	0x3c8964b4	0.016771652
7	0x3d6ef1d2	0.058336087
8	0xbdff408d	-0.12463484
9	0x3c3d4cef	0.011553987
10	0xbd74b4f0	-0.059742868
11	0xbdfe0684	-0.124035865
12	0xbcd48eb6	-0.025946956
13	0xbc933f41	-0.017974498
14	0xbb573728	-0.0032839272
15	0x3bc4add2	0.0060021663
16	0x3d7f8e23	0.06239141
17	0x3c35bbbd	0.011092124
18	0xbda89232	-0.082310095
19	0xbb4c2db4	-0.003115517
20	0xbd23bc70	-0.03997463
21	0xbe09f542	-0.13472465
22	0xbd8bddca	-0.06829412
23	0x3d157be7	0.036495116
24	0x3e639846	0.22226056
25	0x3cfb5fc8	0.03068532
26	0x3e5d2b78	0.21598613
27	0x3d087eba	0.03332398
28	0x3d2f52d6	0.042803608
29	0xbd8a2c4c	-0.0674673
30	0xbd0b86ab	-0.034063976
31	0x3ccb899c	0.02484589

mention_transformer_0/bottleneck_input/norm/add;StatefulPartitionedCall/mention_transformer_0/bottleneck_input/norm/add;sequential_1/dense_3/Tensordot/shape;StatefulPartitionedCall/sequential_1/dense_3/Tensordot/shape;mention_transformer_0/bottleneck_input/norm/mul;StatefulPartitionedCall/mention_transformer_0/bottleneck_input/norm/mul;mention_transformer_0/bottleneck_input/dense/add;StatefulPartitionedCall/mention_transformer_0/bottleneck_input/dense/add;mention_transformer_0/bottleneck_input/dense/einsum/Einsum;StatefulPartitionedCall/mention_transformer_0/bottleneck_input/dense/einsum/Einsum;12810;12812;12814 f4 [32]
0	0x3d638f58	0.055556625
1	0xbdaae22c	-0.0834392
2	0x3e14c740	0.14529133
3	0xbdb933e3	-0.090431
4	0xbe1dea44	-0.15421396
5	0x3d80e648	0.06293923
6	0x3df07f22	0.11742999
7	0x3e26dbcd	0.16294785
8	0xbd5c28fc	-0.053750023
9	0xbd41b65a	-0.047293045
10	0xbd82fd8e	-0.06396018
11	0x3e2efb16	0.17087969
12	0x3d5c19f4	0.05373569
13	0xbcbf7a10	-0.023373634
14	0xbd04e464	-0.032444373
15	0x3d3d2f26	0.046187542
16	0x3e391af6	0.18076691
17	0xbd487c5f	-0.048946735
18	0xbce393ca	-0.027780432
19	0xbdd2a562	-0.102854505
20	0x3af637ea	0.0018784974
21	0xbd444fd1	-0.04792768
22	0xbdc38bbc	-0.095481366
23	0xbe09d586	-0.13460359
24	0xbda0a23d	-0.078434445
25	0xbcc6b668	-0.0242569
26	0x3d427c34	0.04748173
27	0xbe4da956	-0.20084128
28	0x3e53ecc6	0.2069579
29	0xbda294c0	-0.07938528
30	0x3dd466aa	0.10371144
31	0xbd490544	-0.049077287

mention_transformer_1/bottleneck_input/norm/add;StatefulPartitionedCall/mention_transformer_1/bottleneck_input/norm/add;sequential_1/dense_3/Tensordot/shape;StatefulPartitionedCall/sequential_1/dense_3/Tensordot/shape;mention_transformer_1/bottleneck_input/norm/mul;StatefulPartitionedCall/mention_transformer_1/bottleneck_input/norm/mul;mention_transformer_1/bottleneck_input/dense/add;StatefulPartitionedCall/mention_transformer_1/bottleneck_input/dense/add;mention_transformer_1/bottleneck_input/dense/einsum/Einsum;StatefulPartitionedCall/mention_transformer_1/bottleneck_input/dense/einsum/Einsum;12902;12904;12906 f4 [32]
0	0x3d9cc2ae	0.0765432
1	0xbd6bfe2a	-0.057615437
2	0x3c376044	0.011192385
3	0x3cdd4ba7	0.027013613
4	0x3d4c9042	0.049942262
5	0xbd94f04a	-0.07272394
6	0x3de7ae97	0.11312597
7	0xbe522a1c	-0.20523876
8	0x3d11fe6b	0.035643023
9	0x3e776c54	0.24162418
10	0xbe850ce9	-0.25986412
11	0x3d305bb6	0.043056212
12	0xbcfa7253	-0.030572092
13	0xbe095598	-0.13411558
14	0xbd754e74	-0.05988927
15	0xbd0470ec	-0.032334253
16	0xbea1eba4	-0.31625092
17	0xbceaa158	-0.028641388
18	0xbd9f0296	-0.07764165
19	0xbe05013a	-0.12988749
20	0xbc821f3e	-0.015884038
21	0xbe1a5f88	-0.15075505
22	0xbd2c7462	-0.04210318
23	0x3e48da2e	0.19614479
24	0x3d076568	0.033055693
25	0xbca1d532	-0.01975498
26	0xbe71474a	-0.23562351
27	0x3d436afc	0.04770945
28	0x3ca3b740	0.019984841
29	0xbdb7de4e	-0.08977948
30	0x3e59381f	0.21212815
31	0x3e89510a	0.2681964

context_transformer_0/attention/value/add;StatefulPartitionedCall/context_transformer_0/attention/value/add;context_transformer_0/attention/value/einsum/Einsum;StatefulPartitionedCall/context_transformer_0/attention/value/einsum/Einsum;12638 f4 [32]
0	0xbd8657dc	-0.065597266
1	0x3e0f7c17	0.1401218
2	0x3d5f2dd7	0.054487076
3	0x3d76c95f	0.060250636
4	0x3d023d6f	0.03179687
5	0x3d829963	0.063769124
6	0x3e299b86	0.16563234
7	0x3e3632b7	0.17792784
8	0xbc916f2a	-0.017753202
9	0xbd16cf50	-0.036818802
10	0x3c0ec163	0.008713099
11	0x3cf900bc	0.030395858
12	0x3d5010e8	0.050797373
13	0xbbcc4724	-0.0062340666
14	0x3d1a95e6	0.03774061
15	0x3d311f4c	0.043242738
16	0x3d027cf7	0.031857457
17	0xbd836ba8	-0.06417018
18	0x3d26e5b4	0.040746406
19	0xbd88eb53	-0.066855095
20	0xbd439d34	-0.047757342
21	0xbca9799d	-0.020687873
22	0x3dfce61d	0.12348578
23	0xbd5265c6	-0.05136659
24	0xbe131c41	-0.14366247
25	0xbd9af0c7	-0.07565456
26	0xbe3462f5	-0.17615874
27	0xbc9fd8e6	-0.019512605
28	0xbe0c237c	-0.13685411
29	0xbe040cb1	-0.12895466
30	0xbd942c32	-0.07234992
31	0x3cd00da4	0.02539713

context_transformer_0/bottleneck_input/norm/mul;StatefulPartitionedCall/context_transformer_0/bottleneck_input/norm/mul;context_transformer_0/bottleneck_input/dense/einsum/Einsum;StatefulPartitionedCall/context_transformer_0/bottleneck_input/dense/einsum/Einsum;context_transformer_0/bottleneck_input/dense/add;StatefulPartitionedCall/context_transformer_0/bottleneck_input/dense/add;12614;12616 f4 [32, 32]
0	0x3e39ea91	0.18155886
1	0x3f0b7062	0.5446836
2	0xbe5815b2	-0.21102026
3	0x3e93fd44	0.28904164
4	0x3eeb165c	0.45915496
5	0xbe26fb19	-0.16306724
6	0x3e5bd9c7	0.21469794
7	0x3d7b4bf7	0.061351743
8	0xbde50e89	-0.11184413
9	0x3dbe8328	0.0930236
10	0x3e3bd8f2	0.18344477
11	0xbe1b9206	-0.15192422
12	0x3e486534	0.19569856
13	0xbce22b8d	-0.027608657
14	0x3e014fd9	0.12628116
15	0xbefa1a7e	-0.48848337
16	0x3daea1c2	0.085269466
17	0xbe20d518	-0.15706289
18	0x3e12661e	0.14296767
19	0x3eab1fbb	0.33422646
20	0x3d031a4e	0.032007508
21	0x3e96f448	0.29483247
22	0x3e8b5002	0.2720948
23	0x3c8e2f1b	0.017356446
24	0x3c918008	0.017761245
25	0x3ce9fe2e	0.028563585
26	0xbef888ac	-0.48541772
27	0xbe4459c7	-0.19174872
28	0x3ddb5b14	0.10710731
29	0x3c64a54e	0.013955427
30	0xbe855a1b	-0.26045308
31	0x3e0bf637	0.13668142
32	0xbdecd6f7	-0.11564439
33	0x3dc5554d	0.096354105
34	0xbe4d1ec4	-0.20031267
35	0x3e4fec3d	0.20304962
36	0xbe83483d	-0.2564105
37	0xbe6b398b	-0.2297117
38	0x3ebbcf51	0.36681607
39	0x3dacdf54	0.08441034
40	0x3ef91ead	0.48656216
41	0xbda5c7f0	-0.08094776
42	0xbebb9c32	-0.36642605
43	0xbe0b54b6	-0.13606533
44	0x3dfe3e47	0.12414222
45	0xbe2b57d4	-0.16732723
46	0xbe4044b5	-0.1877621
47	0xbea8d81b	-0.32977375
48	0xbd6e2b7a	-0.05814693
49	0xbd1b9e5c	-0.03799282
50	0x3e81ffb4	0.25390399
51	0x3d876e88	0.06612879
52	0x3e64519a	0.22296754
53	0xbe3dd5ad	-0.18538542
54	0xbd4413fe	-0.04787063
55	0x3db2390a	0.087022856
56	0xbcecf9f1	-0.028927775
57	0x3b2b61e8	0.0026150886
58	0x3e19ef5e	0.15032718
59	0xbb9edc56	-0.0048480434
60	0x3da46f12	0.080289975
61	0x3f641ed0	0.89109516
62	0xbeadf7d8	-0.33978152
63	0xbd343747	-0.04399803
64	0xbf128e7e	-0.57248676
65	0xbe3afdc0	-0.1826086
66	0x3e41ce32	0.18926314
67	0xbe01e6e2	-0.12685731
68	0xbcb732cb	-0.022363087
69	0x3e3ace12	0.18242672
70	0xbe34aea5	-0.17644747
71	0xbe65f9d4	-0.22458583
72	0xbee52cbd	-0.44760695
73	0xbd9b0fb1	-0.07571352
74	0x3e9ce6c5	0.30644813
75	0x3db603b9	0.08887429
76	0x3ea9b0e0	0.33142757
77	0xbf17a56c	-0.5923679
78	0xbcd24015	-0.025665322
79	0x3e98c2dc	0.29836166
80	0xbe930924	-0.2871791
81	0xbefff7ae	-0.49993652
82	0xbea16ceb	-0.3152841
83	0x3db97f2a	0.09057458
84	0x3ef8a295	0.4856154
85	0xbeb0733c	-0.34462917
86	0xbe71e91a	-0.23624077
87	0x3c1d95e2	0.009618254
88	0x3e2f20f1	0.1710241
89	0xbe3650d0	-0.17804265
90	0xbee40788	-0.44536996
91	0xbf28ed7a	-0.6598736
92	0x3dde6d03	0.10860636
93	0x3f87e737	1.0617436
94	0x3e347fef	0.17626928
95	0x3e50f9ed	0.20407839
96	0x3e94e421	0.290803
97	0xbe738671	-0.23781754
98	0xbe29b322	-0.1657224
99	0x3e061b19	0.13096274
100	0xbe7410ee	-0.23834583
101	0xbc94b2cf	-0.018151669
102	0xbe033bb6	-0.12815747
103	0x3e560c6f	0.2090318
104	0x3e8c0ed9	0.27355078
105	0xbe3e4c9e	-0.18583915
106	0xbf12039d	-0.57036763
107	0xbda846e1	-0.08216644
108	0xbe9b8da9	-0.30381516
109	0xbe180cb0	-0.1484859
110	0xbcc3343b	-0.023828616
111	0xbe760780	-0.24026299
112	0xbd19fbde	-0.037593715
113	0xbdb86d65	-0.0900524
114	0xbd792b4e	-0.060832314
115	0x3dd0f428	0.10202819
116	0x3eee4a3d	0.46541014
117	0xbea1f991	-0.31635717
118	0x3c10b754	0.008832771
119	0xbd9b0a34	-0.075703055
120	0x3e2e5c4a	0.17027393
121	0x3e0782a5	0.1323343
122	0xbdb99c44	-0.090630084
123	0xbdea2928	-0.11433631
124	0x3e3716b8	0.1787976
125	0xbf7b7b88	-0.9823537
126	0xbe036289	-0.12830557
127	0x3e0b85fb	0.13625328
128	0x3dc2322d	0.094822265
129	0xbf281e4f	-0.6567125
130	0x3e3e8a6a	0.18607488
131	0xbd2f891e	-0.042855375
132	0xbeb6a476	-0.3567235
133	0xbec3e5eb	-0.3826135
134	0xbd844a6d	-0.06459508
135	0x3e1bda74	0.15220052
136	0x3eb40384	0.35158932
137	0x3d174e84	0.036940113
138	0x3eed1bbb	0.4631022
139	0xbeb5dd20	-0.35520267
140	0x3ee4c8d6	0.44684476
141	0xbee9fecd	-0.4570221
142	0xbe290c9e	-0.1650872
143	0x3e19cf88	0.15020573
144	0x3e2a6adb	0.16642325
145	0xbdb78e2a	-0.089626625
146	0xbf0f7f4d	-0.5605362
147	0x3bd15b94	0.006389091
148	0xbdb2625b	-0.08710166
149	0xbe4492bc	-0.191966
150	0x3da925c7	0.082591586
151	0x3e323cac	0.17405957
152	0xbdabb817	-0.08384722
153	0xbce67f1c	-0.028136782
154	0x3ec5e9eb	0.38655028
155	0x3c02b79c	0.007978346
156	0xbf82cdc5	-1.0219046
157	0x3ea6f058	0.32605243
158	0x3f0ae3cb	0.54253834
159	0x3ef1d385	0.4723169
160	0xbf00f0f0	-0.5036764
161	0xbf0ad386	-0.5422901
162	0xbd6db398	-0.058032602
163	0xbe39b7bd	-0.18136497
164	0x3e9b6d6e	0.30356926
165	0x3e6ad855	0.22934087
166	0x3dc43610	0.09580624
167	0xbf19a32a	-0.60014594
168	0x3e48082a	0.19534364
169	0x3eaefa0a	0.3417514
170	0x3e70a250	0.23499417
171	0x3dc1bfae	0.09460388
172	0x3f23f87d	0.6405104
173	0xbe05f537	-0.13081823
174	0xbcbc566e	-0.022990432
175	0xbe62db81	-0.22154047
176	0xbdf8a3c2	-0.12140609
177	0x3f0bcd75	0.5461038
178	0xbd8e15dd	-0.06937764
179	0xbef6b1a5	-0.48182407
180	0x3ea5baaa	0.32368976
181	0xbeb1aa69	-0.34700325
182	0x3dc4d765	0.09611396
183	0x3e2eb329	0.17060532
184	0xbf0bf19b	-0.54665536
185	0xbe9f8b1d	-0.31160823
186	0xbebcf227	-0.36903498
187	0xbed5e5ec	-0.4177698
188	0x3e5263da	0.20545903
189	0xbe8fccc3	-0.28085908
190	0x3e40ac02	0.18815616
191	0x3f196f42	0.5993539
192	0xbe888b23	-0.26668653
193	0xbdcfcd3f	-0.101465695
194	0x3e36097f	0.1777706
195	0xbd58aaf3	-0.052897405
196	0x3e8b8f77	0.27257892
197	0xbe69f997	-0.22849117
198	0xbbba7a09	-0.0056908173
199	0x3db85460	0.09000468
200	0x3e65102f	0.22369455
201	0xbd254ffa	-0.040359475
202	0xbede2ce6	-0.4339363
203	0xbc4d958f	-0.012547865
204	0x3dd3f3a6	0.103492066
205	0xbea763f9	-0.3269346
206	0xbd215869	-0.039390955
207	0x3d7b4552	0.061345406
208	0x3ecc477e	0.39898294
209	0x3e0f82ca	0.14014736
210	0xbc9e9a42	-0.019360665
211	0xbe9be7b0	-0.304502
212	0x3e7f00b1	0.24902608
213	0xbc946f22	-0.018119399
214	0xbdafa12e	-0.085756645
215	0x3e40d32f	0.1883056
216	0xbed9a39c	-0.42507637
217	0xbeab5c7a	-0.33468992
218	0x3e56b2ac	0.20966595
219	0xbdc5656c	-0.09638485
220	0xbc681065	-0.014164065
221	0x3eee183f	0.46502873
222	0x3e54983e	0.20761201
223	0xbe642c2f	-0.2228248
224	0x3bf33b54	0.007422844
225	0x3ec36aa8	0.3816731
226	0xbc83eda2	-0.016104523
227	0x3d8e8016	0.06958024
228	0x3ebeefea	0.37292415
229	0x3ee4bb2a	0.44674045
230	0x3c5c520b	0.013447295
231	0x3dd121ab	0.102115
232	0x3d8bfdc4	0.06835511
233	0x3dc49461	0.095986135
234	0x3e7d06a7	0.24709569
235	0x3e1fc362	0.15601876
236	0x3e9ceb9b	0.30648503
237	0xbc3278bf	-0.010893046
238	0xbd1233f7	-0.03569409
239	0xbe09f9bb	-0.13474171
240	0xbf08f931	-0.53505236
241	0xbd70ed0c	-0.058819816
242	0x3ddf272e	0.10896145
243	0xbf6fa352	-0.9360858
244	0x3e1854c3	0.14876084
245	0x3da9de0d	0.08294306
246	0x3d894b8c	0.067038625
247	0xbc0c6a8e	-0.0085703265
248	0xbe7acfc9	-0.24493326
249	0xbf1a4cf2	-0.6027366
250	0x3df965b6	0.12177603
251	0x3ead9f0a	0.339104
252	0xbee141ef	-0.43995616
253	0xbe1259e2	-0.142921
254	0x3d1328c1	0.035927538
255	0x3e9e8c53	0.30966434

context_transformer_1/attention/value/add;StatefulPartitionedCall/context_transformer_1/attention/value/add;context_transformer_0/attention/value/einsum/Einsum;StatefulPartitionedCall/context_transformer_0/attention/value/einsum/Einsum;context_transformer_1/attention/value/einsum/Einsum;StatefulPartitionedCall/context_transformer_1/attention/value/einsum/Einsum;12730 f4 [32]
0	0x3c08b8cc	0.00834484
1	0x3c86fe5b	0.016478708
2	0x3d9b3cb9	0.07579941
3	0xbbba8be3	-0.0056929453
4	0xbd21f50f	-0.039540347
5	0xbdb10918	-0.086443126
6	0xbc60319b	-0.013683702
7	0xbd5ca9c9	-0.053872857
8	0x3cfce7bb	0.030872216
9	0x3d4409f8	0.04786107
10	0x3d22a1d3	0.03970511
11	0xbd19535e	-0.03743302
12	0xbd25b090	-0.040451586
13	0xbc3dd7f7	-0.011587135
14	0x3cb58d93	0.022162234
15	0xbca5a277	-0.02021907
16	0x3db02294	0.08600345
17	0xbd5f8010	-0.05456549
18	0xbb94ce5f	-0.004541203
19	0x3ce86cb9	0.028372156
20	0x3d8933d8	0.066993415
21	0x3de0dbcf	0.10979425
22	0xbd3a771a	-0.04552374
23	0x3e143ce2	0.1447635
24	0x3d0310a8	0.031998307
25	0x3d9b25a7	0.07575541
26	0xbe33e3bc	-0.17567343
27	0x3d58d9f6	0.05294224
28	0x3da94b46	0.082663104
29	0xbe01477d	-0.12624927
30	0xbd054fe7	-0.032546904
31	0x3c813c84	0.015775926

context_transformer_1/bottleneck_input/norm/mul;StatefulPartitionedCall/context_transformer_1/bottleneck_input/norm/mul;context_transformer_0/bottleneck_input/dense/einsum/Einsum;StatefulPartitionedCall/context_transformer_0/bottleneck_input/dense/einsum/Einsum;context_transformer_1/bottleneck_input/dense/add;StatefulPartitionedCall/context_transformer_1/bottleneck_input/dense/add;context_transformer_1/bottleneck_input/dense/einsum/Einsum;StatefulPartitionedCall/context_transformer_1/bottleneck_input/dense/einsum/Einsum;12706;12708 f4 [32, 32]
0	0x3dc91c21	0.09819818
1	0x3da1cf1f	0.07900833
2	0x3baf28d1	0.005345442
3	0xbd0b51cf	-0.034013566
4	0xbef1106c	-0.4708284
5	0xbed42ac4	-0.41438878
6	0x3ea90158	0.33008838
7	0x3eabe326	0.33571738
8	0x3eb32dc0	0.34995842
9	0xbd469c82	-0.0484891
10	0x3e260910	0.16214395
11	0x3e8afe55	0.27147165
12	0x3e483e05	0.19554909
13	0x3eda4c56	0.42636365
14	0x3e5b48d2	0.21414497
15	0xbe48cb67	-0.19608842
16	0x3e3bc722	0.18337682
17	0xbe019cf1	-0.12657525
18	0x3e5dbf2f	0.21654962
19	0x3e0918a3	0.13388304
20	0x3e94430d	0.28957406
21	0xbe91efa8	-0.28503156
22	0x3f306b40	0.6891365
23	0x3e86b8cc	0.26312864
24	0x3e02b081	0.12762643
25	0x3d669e72	0.05630345
26	0xbdf4da20	-0.119556665
27	0x3d4ef59a	0.050527193
28	0x3dede52c	0.11615977
29	0x3d7d3220	0.06181538
30	0xbe7b3224	-0.24530846
31	0xbe757367	-0.23969804
32	0xbe9f2550	-0.31083155
33	0x3d151281	0.0363946
34	0x3e1123c6	0.14173803
35	0xbeed994d	-0.46406022
36	0xbeb7a6e1	-0.35869506
37	0x3f142670	0.5787115
38	0xbe31076d	-0.17287989
39	0x3e2877ab	0.164519
40	0xbe0b99d6	-0.13632903
41	0xbf248a6d	-0.6427372
42	0xbec6d339	-0.38833025
43	0x3e301ac2	0.17197707
44	0xbc4a866e	-0.012361152
45	0x3e2e87ab	0.1704394
46	0xbc52e2b6	-0.012871435
47	0x3da12d7a	0.07870002
48	0xbe8cdeea	-0.2751382
49	0x3ca4796e	0.020077433
50	0xbe824191	-0.25440648
51	0xbdd96863	-0.10615613
52	0xbcce8795	-0.025211135
53	0xbe81a741	-0.25322917
54	0x3ce5774b	0.028010985
55	0xbdcba55b	-0.099436484
56	0xbe648482	-0.22316173
57	0x3eea9073	0.4581333
58	0x3ea2e777	0.3181722
59	0xbefc6fda	-0.49304086
60	0x3b727a7d	0.0036999278
61	0xbeb4a9ae	-0.35285705
62	0xbefbabc5	-0.49154487
63	0x3ee57db0	0.44822454
64	0xbe2b242b	-0.16713016
65	0x3e0d02b2	0.1377056
66	0x3cbff2c1	0.023431184
67	0xbd22de5f	-0.03976285
68	0xbe050e17	-0.12993656
69	0x3e218c9b	0.15776293
70	0xbe4d2b53	-0.20036058
71	0x3e53b533	0.20674591
72	0x3e8ee2ed	0.27907506
73	0xbceaaf15	-0.028647939
74	0x3e0d1ad7	0.1377977
75	0xbe335cc3	-0.17515855
76	0xbe926756	-0.28594464
77	0xbea5c2a7	-0.3237507
78	0x3e5749ee	0.21024296
79	0x3e8d1a29	0.2755902
80	0xbde6171f	-0.11234879
81	0x3daa9860	0.083298445
82	0xbe63534f	-0.22199748
83	0x3e9ec279	0.31007746
84	0xbd36bd41	-0.04461408
85	0x3ddd69a4	0.10811165
86	0xbd61485d	-0.05500065
87	0xbdb064d5	-0.08612982
88	0x3dcbad95	0.099452175
89	0x3c832f99	0.016013907
90	0x3e58caf4	0.2117117
91	0xbd8d411e	-0.06897186
92	0x3d0236dc	0.0317906
93	0x3d843aa0	0.06456494
94	0x3d056f8f	0.032577094
95	0x3e961f85	0.29320922
96	0x3da164a8	0.07880527
97	0x3e28129c	0.16413349
98	0xbe7c8631	-0.24660565
99	0xbe87168b	-0.26384386
100	0xbe8d73e5	-0.27627483
101	0x3cf7adb3	0.030234193
102	0xbe38f039	-0.18060388
103	0x3dca7188	0.098849356
104	0x3b62d6ef	0.0034612974
105	0xbd7c116e	-0.06154006
106	0x3db3df0e	0.08782779
107	0x3ea38b21	0.31942084
108	0x3ae7947f	0.0017668157
109	0x3ec7a76d	0.38994923
110	0x3e859394	0.26089156
111	0x3e404305	0.18775566
112	0xbdac5fb4	-0.084166914
113	0x3c340c98	0.010989331
114	0x3e91fd90	0.28513765
115	0x3d38a95a	0.04508338
116	0x3df5db5e	0.120047316
117	0x3eafbd3b	0.3432406
118	0x3dffb08b	0.12484845
119	0xbd475b20	-0.048670888
120	0xbe2f47e3	-0.17117266
121	0xbe37cd38	-0.17949378
122	0xbe6e226b	-0.23255317
123	0xbcd543b4	-0.02603326
124	0xbe28372a	-0.16427293
125	0xbe2da0ae	-0.16955826
126	0x3d8c3d61	0.068476446
127	0x3d542f7b	0.051803093
128	0x3efd5ab1	0.49483255
129	0xbe420b54	-0.18949634
130	0x3ed3446f	0.41263148
131	0x3baf6f58	0.0053538494
132	0xbd3fef9d	-0.046859372
133	0xbe2c4a36	-0.16825184
134	0x3eeea09f	0.4660692
135	0x3d66a19c	0.056306466
136	0x3e9ed77d	0.3102378
137	0xbcae3582	-0.021265749
138	0xbd805b34	-0.062673956
139	0x3e7a5efe	0.24450299
140	0x3f5b6cdf	0.85713
141	0xbe7480b3	-0.2387722
142	0xbdb26953	-0.08711495
143	0xbdd544e0	-0.104135275
144	0x3e27b4ca	0.1637756
145	0x3d710a19	0.05884752
146	0xbe3cadd0	-0.18425679
147	0xbe3c5a0e	-0.18393728
148	0x3d4cf2ae	0.050036125
149	0x3ee0b966	0.43891448
150	0xbe6a3c8f	-0.22874664
151	0x3f07841e	0.5293597
152	0xbf14ae75	-0.580787
153	0x3e8a1b04	0.26973736
154	0xbf237e34	-0.63864446
155	0x3ddcf419	0.107887454
156	0x3e5eb6ae	0.21749374
157	0xbd53dd55	-0.05172475
158	0x3dc9f798	0.09861678
159	0xbe8dabd3	-0.27670154
160	0xbdcca10f	-0.09991657
161	0xbd954a9b	-0.072896205
162	0x3d87ee2b	0.06637224
163	0xba59d729	-0.00083099544
164	0xbca01879	-0.01954292
165	0xbcfec163	-0.031098073
166	0xbe51e0d4	-0.20495921
167	0x3e66df3c	0.22546095
168	0x3dd7ec37	0.10543101
169	0x3b276780	0.0025543869
170	0xbc74d526	-0.014943397
171	0xbe1f74e1	-0.1557193
172	0xbd649abb	-0.055811625
173	0x3e8cfcf2	0.27536732
174	0x3d9745d6	0.07386367
175	0x3eb96e72	0.36217076
176	0x3dd974ff	0.10618018
177	0x3d92a968	0.07161218
178	0x3e13c90f	0.14432167
179	0xbd8b95d5	-0.068156876
180	0xbd342109	-0.043976817
181	0x3efa8ce4	0.48935616
182	0xbda13228	-0.07870895
183	0x3d60470d	0.05475526
184	0xbd8b0b4b	-0.06789263
185	0x3c936135	0.017990688
186	0x3e3001a3	0.17188124
187	0x3f1cf84b	0.61316365
188	0x3bfec959	0.0077754674
189	0xbd92b992	-0.07164301
190	0x3e3c97bf	0.18417262
191	0x3a3f4136	0.0007295789
192	0xbdc25adc	-0.09489986
193	0xbf030e75	-0.51193935
194	0xbe1ee8f1	-0.15518548
195	0x3db77197	0.089572124
196	0xbcf79a0a	-0.030224819
197	0xbdaecb3d	-0.085348584
198	0xbd8bffd8	-0.06835908
199	0xbe0a7d66	-0.13524398
200	0xbcb7f848	-0.022457257
201	0xbe128f7b	-0.14312546
202	0x3da1e80d	0.07905588
203	0x3d6833c5	0.056689996
204	0xbd98c354	-0.07459131
205	0xbeea2f01	-0.45738986
206	0xbdcc768a	-0.09983547
207	0x3b413ad2	0.0029484523
208	0x3def1424	0.116737634
209	0x3b933372	0.0044922167
210	0xbd4287d7	-0.04749283
211	0xbda440dc	-0.080201834
212	0x3e35816c	0.17725152
213	0xbdc36ddf	-0.095424406
214	0x3d8fa84e	0.070145234
215	0x3e3e0ccb	0.18559568
216	0xbcdaa33c	-0.026689164
217	0x3d08a524	0.033360615
218	0xbcac0433	-0.020998096
219	0x3ca11ac4	0.019666083
220	0x3ef88958	0.48542285
221	0x3f26ed14	0.652055
222	0x3e0bf06c	0.13665932
223	0x3d8bbae2	0.068227544
224	0xbe4a5f39	-0.19762887
225	0xbda23720	-0.079206705
226	0xbd1a4a38	-0.037668437
227	0x3dad8fde	0.08474706
228	0xbed3939a	-0.4132355
229	0x3ddb2719	0.10700817
230	0x3d6d66e0	0.057959437
231	0xbb1b3a7b	-0.002368598
232	0x3c8b7588	0.017023817
233	0x3e43db09	0.19126524
234	0xbe2753af	-0.16340517
235	0xbe779ee3	-0.24181704
236	0x3ded549f	0.11588406
237	0x3db3f194	0.08786312
238	0x3cf16c77	0.029470665
239	0x3e28c35a	0.1648077
240	0x3d29e9e1	0.04148281
241	0x3ea45dfd	0.32102957
242	0xbe968586	-0.29398745
243	0xbe8cbc5b	-0.27487454
244	0xbc59de43	-0.01329762
245	0x3e1d7aaf	0.15378831
246	0x3e4ad886	0.1980916
247	0xbd104264	-0.035219565
248	0xbce1c1da	-0.027558256
249	0xbdccef94	-0.100066334
250	0x3a67ed9b	0.00088473567
251	0xbdfae1c3	-0.12250092
252	0x3e40ad4c	0.18816108
253	0xbc89bf7b	-0.016814938
254	0xbcb8e72d	-0.02257117
255	0xbe6723a5	-0.22572191

mention_transformer_0/attention/value/add;StatefulPartitionedCall/mention_transformer_0/attention/value/add;mention_transformer_0/attention/value/einsum/Einsum;StatefulPartitionedCall/mention_transformer_0/attention/value/einsum/Einsum;12834 f4 [32]
0	0x3ce12bbf	0.02748668
1	0xbe50eb59	-0.20402278
2	0xbd68a8cf	-0.056801613
3	0x3e2b4e1b	0.16729014
4	0xbddfddab	-0.10930952
5	0x3c0e3be2	0.008681269
6	0xbdcef9fa	-0.10106273
7	0x3e5c19d5	0.21494229
8	0xbc8f3f6a	-0.017486293
9	0xbd0443ca	-0.03229121
10	0xbd36c22e	-0.044618778
11	0xbd8e7537	-0.06955951
12	0x3df568df	0.11982893
13	0x3cdc2ee4	0.026877828
14	0xbd82959d	-0.06376193
15	0x3dd42c9f	0.10360073
16	0x3db3b83e	0.08775376
17	0xbe32e6ef	-0.17470907
18	0x3d27c819	0.040962312
19	0x3d5a8f86	0.05335953
20	0x3d88ba8f	0.06676208
21	0xbb7824a1	-0.003786363
22	0xbd285679	-0.04109809
23	0x3e136f3f	0.14397906
24	0xbe10bbb9	-0.1413411
25	0xbe928cda	-0.28623086
26	0xbd13f27e	-0.03611993
27	0xbe375f9a	-0.17907563
28	0xbce188dd	-0.027531082
29	0x3dd32f85	0.10311798
30	0xbdb157ae	-0.08659302
31	0xbdbdf2fd	-0.09274862

mention_transformer_0/bottleneck_input/norm/mul;StatefulPartitionedCall/mention_transformer_0/bottleneck_input/norm/mul;sequential_1/dense_3/Tensordot/shape;StatefulPartitionedCall/sequential_1/dense_3/Tensordot/shape;mention_transformer_0/bottleneck_input/dense/add;StatefulPartitionedCall/mention_transformer_0/bottleneck_input/dense/add;mention_transformer_0/bottleneck_input/dense/einsum/Einsum;StatefulPartitionedCall/mention_transformer_0/bottleneck_input/dense/einsum/Einsum;12810;12812 f4 [32, 32]
0	0x3e2c2879	0.16812314
1	0xbdd409d9	-0.10353441
2	0x3dae65e3	0.08515527
3	0xbed2bb27	-0.4115841
4	0x3e6831d7	0.22675262
5	0xbf3cc6db	-0.7374093
6	0x3edb8ee0	0.42882442
7	0xbf107364	-0.5642607
8	0xbe4b52c5	-0.19855793
9	0xbe6f9d69	-0.23399891
10	0x3d51e84a	0.05124692
11	0xbdade71d	-0.08491347
12	0x3d025bea	0.031825937
13	0xbe3c60bf	-0.1839628
14	0xbcf28a4b	-0.029606959
15	0xbe9c97da	-0.30584604
16	0xbe602722	-0.21889928
17	0x3e2c6d6c	0.16838616
18	0x3d11401c	0.03546153
19	0xbdfd8e99	-0.12380714
20	0x3bd84d9e	0.0066010496
21	0x3e8c3f26	0.27391928
22	0x3e25e28d	0.16199704
23	0x3e39a1a5	0.18128069
24	0xbe9b33f8	-0.30313087
25	0xbd043601	-0.032278065
26	0x3e38ffbe	0.18066308
27	0xbf1256e9	-0.57163864
28	0xbe58e9d7	-0.21182953
29	0xbe6fd52a	-0.2342116
30	0x3c932e2c	0.017966352
31	0x3e0e088c	0.13870448
32	0x3e18c3db	0.14918463
33	0xbd7d1077	-0.06178328
34	0x3cbbe019	0.022934007
35	0xbc52d4a8	-0.012868084
36	0xbc65c3ef	-0.014023765
37	0x3e4be883	0.19912915
38	0xbdf1c79a	-0.11805649
39	0x3e4218a4	0.18954712
40	0xbe3e7ba4	-0.18601853
41	0xbca507c6	-0.020145308
42	0xbe7372fc	-0.23774332
43	0xbcc90812	-0.024539981
44	0xbdf30833	-0.11866798
45	0x3e26a0ff	0.16272353
46	0x3ef6d934	0.48212588
47	0x3e1f3dc7	0.1555091
48	0x3d44a104	0.04800512
49	0x3d584034	0.052795604
50	0x3e292afb	0.16520302
51	0x3d9e4a70	0.077290416
52	0x3e53eb98	0.2069534
53	0xbe8259f7	-0.25459263
54	0xbdff2e4c	-0.12460002
55	0xbdc6757c	-0.09690377
56	0xbd7b22aa	-0.061312355
57	0xbe0356f4	-0.12826139
58	0x3e3b006f	0.18261884
59	0xbeaf3d07	-0.34226248
60	0xbdd56f84	-0.104216605
61	0x3e6e680f	0.23281883
62	0x3e926fef	0.28601024
63	0x3e1d86b2	0.15383413
64	0x3d6b4d17	0.057446565
65	0xbe011ffe	-0.1260986
66	0xbdad0a21	-0.084491976
67	0x3e0f3f7e	0.13989064
68	0xbdb5264f	-0.088451974
69	0x3e996f33	0.2996765
70	0x3e2e9603	0.17049412
71	0x3e2236e4	0.15841252
72	0x3e44f4d2	0.19234017
73	0x3e6cfb4d	0.23142739
74	0x3cca3fa6	0.024688553
75	0x3e9c76bb	0.30559334
76	0xbd6fcd21	-0.058545236
77	0x3ddbba8c	0.1072894
78	0x3e3a8367	0.18214189
79	0x3cfaecbf	0.030630467
80	0xbaf774d5	-0.0018879423
81	0x3de03a4a	0.10948618
82	0xbdb694d3	-0.08915105
83	0xbe2261c8	-0.15857613
84	0xbc1a2a5c	-0.009409513
85	0x3c1fe7e5	0.009759878
86	0xbea517ec	-0.32244813
87	0xbf0e70fa	-0.5564114
88	0x3d81232f	0.06305539
89	0x3e0c6396	0.13709864
90	0xbeff5a96	-0.498738
91	0x3e8313aa	0.2560094
92	0x3e098558	0.13429773
93	0xbd7ae481	-0.061253075
94	0x3c74daeb	0.014944772
95	0xbe62ae42	-0.22136787
96	0x3e2ea6fd	0.17055888
97	0xbcc56c88	-0.024099603
98	0xbe90e97c	-0.28303134
99	0xbe2eb1b6	-0.17059979
100	0xbe2823e9	-0.16419949
101	0xbdcb84d2	-0.09937443
102	0x3e8ab8b4	0.27094042
103	0xbe06bfe8	-0.13159144
104	0xbe0627c2	-0.13101104
105	0x3e820328	0.25393033
106	0xbe892e32	-0.26793057
107	0xbd5f70d6	-0.054550968
108	0x3e3a9edb	0.18224661
109	0xbdeccedb	-0.11562892
110	0x3db7bc77	0.08971494
111	0x3d66e793	0.05637319
112	0xbda1bf1c	-0.07897779
113	0x3e3605d4	0.17775661
114	0xbe2aa584	-0.16664702
115	0xbd9b5436	-0.07584421
116	0x3dc93dd0	0.09826243
117	0x3de6c7fe	0.11268614
118	0x3cf32d5d	0.029684717
119	0xbeaa002a	-0.3320325
120	0xbdf95b72	-0.12175645
121	0xbeb08c6b	-0.3448213
122	0x3ee6f909	0.45111874
123	0xbed044d5	-0.40677515
124	0xbeb4d13e	-0.3531589
125	0x3e7b0207	0.24512492
126	0x3e2998fa	0.16562262
127	0xbddfa924	-0.10920933
128	0xbd771326	-0.060320996
129	0xbc03a254	-0.0080343075
130	0xbf0f1332	-0.55888665
131	0xbe7097ee	-0.23495457
132	0xbc83ffb6	-0.016113143
133	0xbe2053a2	-0.15656903
134	0x3ed5e665	0.4177734
135	0xbe9c15e7	-0.3048546
136	0x3e361cc1	0.17784406
137	0x3e076c1b	0.13224833
138	0xbe2e185a	-0.17001477
139	0xbd7b34ae	-0.061329536
140	0x3d25b727	0.04045787
141	0xbdd81c77	-0.10552304
142	0xbc32d4a3	-0.010914954
143	0x3e287768	0.164518
144	0xbe2941cd	-0.16529007
145	0x3e6ae83c	0.22940153
146	0xbe8162d8	-0.25270724
147	0xbdabd1ff	-0.08389663
148	0xbc6a4b82	-0.014300229
149	0x3ec48a42	0.38386732
150	0x3e8c6980	0.2742424
151	0xbe0624e6	-0.13100013
152	0x3dff1fb7	0.12457221
153	0x3def2b58	0.11678189
154	0xbdadcedc	-0.08486721
155	0xbddb24e8	-0.10700399
156	0xbdd0615b	-0.10174819
157	0x3decdc75	0.11565486
158	0x3e921aed	0.28536168
159	0x3cec88a5	0.028873751
160	0x3b92c388	0.0044788755
161	0xbe6f4b88	-0.23368657
162	0x3e757523	0.23970465
163	0xbeb4c4ac	-0.353063
164	0x3d4f094b	0.05054597
165	0xbe3220cc	-0.17395324
166	0xbd489dde	-0.04897868
167	0xbe01fad9	-0.12693347
168	0x3de06d49	0.109583445
169	0xbd856e09	-0.06515128
170	0x3cb4b24e	0.022057679
171	0xbe33f2df	-0.17573117
172	0xbc6d8999	-0.014498138
173	0xbeb6cd64	-0.35703576
174	0xbc0d0264	-0.008606527
175	0x3cd2dec7	0.025740994
176	0x3e16a508	0.14711392
177	0xbd280dbc	-0.041028723
178	0x3db9afdb	0.09066745
179	0x3e1a5fed	0.15075655
180	0xbbadf208	-0.0053083934
181	0x3dc6df57	0.097105674
182	0xbb6caa0a	-0.0036112093
183	0xbe80c2d7	-0.2514865
184	0xbd81e328	-0.06342155
185	0xbe5ea9ad	-0.21744414
186	0xbda9a0cc	-0.08282623
187	0xbebe9c8b	-0.37228808
188	0x3bae64ca	0.0053220736
189	0x3e097622	0.1342397
190	0x3e85ef1a	0.26158983
191	0x3dff8565	0.12476615
192	0x3c58433b	0.013199623
193	0x3df6d835	0.12052957
194	0x3c988ede	0.018622812
195	0x3e627206	0.22113809
196	0xbf0a3f58	-0.54002905
197	0xbe220f3a	-0.15826121
198	0xbcf03540	-0.029322267
199	0xbc00f5c7	-0.007871098
200	0xbe24e125	-0.16101511
201	0x3d2a0e48	0.041517526
202	0xbea5f1bf	-0.32411
203	0x3e4e3668	0.20137942
204	0xbdb8e3d2	-0.09027828
205	0xbde584b3	-0.11206951
206	0xbe0cdcdd	-0.13756128
207	0x3f128d83	0.5724718
208	0x3edfbb67	0.43697664
209	0xbd9975cd	-0.07493172
210	0x3ed1ca16	0.40974492
211	0xbe1db2ae	-0.15400192
212	0xbe2eccff	-0.17070387
213	0xbee8b6ad	-0.4545187
214	0x3e84a89f	0.25909898
215	0x3e5f6737	0.21816717
216	0x3d35e672	0.044409223
217	0xbe89fee3	-0.26952276
218	0xbdeee1f4	-0.11664191
219	0xbe40205b	-0.18762343
220	0xbe670ea5	-0.2256418
221	0x3e21066f	0.1572511
222	0x3d747e97	0.059691038
223	0x3e0602ec	0.13087052
224	0xbd5fee5b	-0.054670673
225	0x3c7c6d36	0.015406897
226	0xbd5a039e	-0.053226106
227	0x3d19218a	0.0373855
228	0x3e44d685	0.19222458
229	0xbcd00c4f	-0.025396494
230	0x3d8043bc	0.06262919
231	0x3d705796	0.05867728
232	0x3d048e9b	0.03236256
233	0xbe59749e	-0.21235892
234	0xbee60c93	-0.44931468
235	0xbe0d139c	-0.13777012
236	0xbd3a8f36	-0.045546733
237	0x3e72c858	0.23709238
238	0x3e099251	0.13434722
239	0xbec14eed	-0.37755528
240	0xbe2132ca	-0.1574203
241	0xbcb0aa6a	-0.021565635
242	0xbe1c3ae1	-0.15256836
243	0xbcb56f19	-0.022147702
244	0xbd2dedf8	-0.042463273
245	0xbe82d33c	-0.25551784
246	0x3e7f3180	0.24921227
247	0x3e38fd25	0.18065317
248	0xbe1f35a5	-0.15547808
249	0x3e572ce7	0.21013223
250	0xbc456c04	-0.012049679
251	0x3dcff2cb	0.10153731
252	0x3d0943c3	0.03351189
253	0xbea4a203	-0.32154855
254	0x3e25bd58	0.1618551
255	0x3ab9e5f2	0.0014182909

mention_transformer_1/attention/value/add;StatefulPartitionedCall/mention_transformer_1/attention/value/add;mention_transformer_0/attention/value/einsum/Einsum;StatefulPartitionedCall/mention_transformer_0/attention/value/einsum/Einsum;mention_transformer_1/attention/value/einsum/Einsum;StatefulPartitionedCall/mention_transformer_1/attention/value/einsum/Einsum;12926 f4 [32]
0	0x3d1a7820	0.037712216
1	0xbbe8820a	-0.00709558
2	0xbe2a603a	-0.1663827
3	0xbe427090	-0.18988252
4	0xbe541abd	-0.20713325
5	0xbd9534fb	-0.07285496
6	0x3e6c3a0d	0.2306902
7	0x3d2d75a0	0.042348504
8	0x3ec64fbe	0.38732713
9	0xbc1b28b7	-0.009470156
10	0xbdb2e7fc	-0.08735654
11	0xbdb68243	-0.08911564
12	0xbe3b3c11	-0.18284632
13	0xbd44291e	-0.047890775
14	0xbe1f9b24	-0.15586525
15	0xbd822962	-0.063555494
16	0xbcdb9345	-0.026803622
17	0x3e876fb5	0.26452413
18	0xbc2ffbd5	-0.010741194
19	0xbd99933b	-0.07498785
20	0xbe0c5f37	-0.13708197
21	0xbe7998ed	-0.24374743
22	0x3d503eb0	0.050841033
23	0xbe3d7109	-0.1850015
24	0x3d8801ff	0.06641006
25	0x3dfdb469	0.12387926
26	0x3c36c255	0.011154731
27	0xbe9400da	-0.289069
28	0xbcfac0c5	-0.030609498
29	0xbdfbe780	-0.123000145
30	0xbe5d34f4	-0.21602231
31	0xbeb7ed8d	-0.35923424

mention_transformer_1/bottleneck_input/norm/mul;StatefulPartitionedCall/mention_transformer_1/bottleneck_input/norm/mul;sequential_1/dense_3/Tensordot/shape;StatefulPartitionedCall/sequential_1/dense_3/Tensordot/shape;mention_transformer_1/bottleneck_input/dense/add;StatefulPartitionedCall/mention_transformer_1/bottleneck_input/dense/add;mention_transformer_1/bottleneck_input/dense/einsum/Einsum;StatefulPartitionedCall/mention_transformer_1/bottleneck_input/dense/einsum/Einsum;12902;12904 f4 [32, 32]
0	0xbc11e007	-0.00890351
1	0xbdf0f361	-0.11765171
2	0x3e64efae	0.22357056
3	0xbd1e4baa	-0.038646378
4	0xbc99f802	-0.018795017
5	0xbed36c08	-0.4129336
6	0xbe4c67a8	-0.19961417
7	0xbe311f7e	-0.1729717
8	0xbe50b180	-0.20380211
9	0xbdda6293	-0.10663333
10	0xbe089ce5	-0.133411
11	0xbd3985ef	-0.045293745
12	0x3bcf318d	0.0063230456
13	0xbe2353fc	-0.15950006
14	0x3d7f686c	0.062355444
15	0xbebec13c	-0.372568
16	0xbdde84b9	-0.108651586
17	0xbdc045a1	-0.09388281
18	0x3e9222ac	0.28542078
19	0xbd4529c4	-0.048135534
20	0xbc1198f0	-0.008886561
21	0xbe072075	-0.13195975
22	0x3d920925	0.071306504
23	0xbe220a2b	-0.15824191
24	0x3ce42a58	0.027852222
25	0x3db21210	0.086948514
26	0x3e3297c5	0.17440708
27	0x3e4517b4	0.19247323
28	0xbcf9ddd4	-0.030501284
29	0x3d8445c0	0.06458616
30	0x3e6c3803	0.23068242
31	0xbde83268	-0.11337739
32	0x3e8eced7	0.2789218
33	0xbe90604c	-0.2819847
34	0x3eb4acef	0.35288188
35	0xbf189dbb	-0.5961568
36	0xbc384e83	-0.011249187
37	0xbe9a97f6	-0.30194062
38	0xbd178fa6	-0.03700223
39	0x3ecce9c8	0.4002211
40	0x3da853fc	0.08219144
41	0xbe01476b	-0.126249
42	0xbde8fd3e	-0.11376427
43	0x3d55aeaa	0.052168526
44	0x3d05de3a	0.032682635
45	0xbe6bd3dd	-0.23030038
46	0x3e50046c	0.20314187
47	0xbe276a96	-0.16349253
48	0x3db73883	0.08946326
49	0x3d56894a	0.052377023
50	0x3e4f7686	0.20260057
51	0x3ef0a03d	0.46997252
52	0xbda2b128	-0.07943946
53	0xbe2e6253	-0.17029695
54	0xbd06d89f	-0.03292143
55	0x3da254d2	0.079263344
56	0xbdc43550	-0.09580481
57	0xbd45dbc0	-0.048305273
58	0x3e9904ad	0.2988638
59	0xbe675886	-0.22592363
60	0xbd484fdd	-0.04890429
61	0x3e8db0d5	0.27673975
62	0x3dedc7d2	0.11610378
63	0xbe541a35	-0.20713122
64	0xbd7fde3a	-0.06246779
65	0xbd4d6775	-0.050147492
66	0x3e0ccd4a	0.13750187
67	0x3e51f61f	0.20504044
68	0x3e12dc07	0.14341746
69	0xbae82fca	-0.0017714438
70	0xbbb98a2c	-0.0056622233
71	0xbda8c745	-0.08241133
72	0x3eb30f33	0.34972534
73	0x3deb5e3c	0.11492583
74	0x3d850b84	0.06496337
75	0x3ebb277c	0.36553562
76	0x3dc4ecc8	0.09615475
77	0xbe983277	-0.29726002
78	0x3dc784ca	0.097421244
79	0xbe48b46d	-0.19600077
80	0xbe936abb	-0.28792366
81	0xbe82217a	-0.25416166
82	0x3d9dcb43	0.07704785
83	0xbec517b0	-0.38494635
84	0xbda0fbd2	-0.07860531
85	0xbd1b3b6c	-0.037898466
86	0x3dc879b8	0.09788841
87	0xbec462cf	-0.38356635
88	0xbe635c6b	-0.22203223
89	0x3e0cc674	0.13747579
90	0xbe44ba64	-0.19211727
91	0x3dd18ef0	0.10232341
92	0xbdd811c1	-0.10550261
93	0xbe0210bd	-0.12701698
94	0x3dcf20bb	0.10113665
95	0xbde13a1d	-0.10997412
96	0xbd0791d9	-0.033098076
97	0xbdc20ef3	-0.094755076
98	0x3d80aece	0.06283341
99	0xbd96cc41	-0.07363177
100	0xbdb5179c	-0.08842394
101	0x3d409364	0.047015563
102	0xbe0fd033	-0.14044265
103	0xbeecb6c6	-0.46233195
104	0xbe699596	-0.22810969
105	0xbefd5d0f	-0.4948506
106	0xbe4e2a38	-0.20133293
107	0xbdfc1481	-0.12308598
108	0xbdc98e43	-0.098415874
109	0xbd958235	-0.07300226
110	0xbe87f754	-0.26555884
111	0xbe81200a	-0.25219756
112	0xbe79c83b	-0.24392788
113	0x3e20a80f	0.1568911
114	0x3e51e42b	0.20497195
115	0xbc8cb211	-0.017174752
116	0x3cf160b6	0.02946506
117	0x3dab5498	0.08365744
118	0x3e9c5445	0.30533043
119	0x3a97c197	0.001157808
120	0x3ebbfaf3	0.36714897
121	0xbebaa5e0	-0.36454678
122	0xbe521dad	-0.20519133
123	0x3e1ac47e	0.15114018
124	0xbeb4819e	-0.3525514
125	0x3ee2fed5	0.44335046
126	0xbc48fd18	-0.0122673735
127	0x3d8bf791	0.06834329
128	0x3db8e6db	0.09028407
129	0xbea46547	-0.32108518
130	0x3ceb66f4	0.028735615
131	0x3e8bc79c	0.27300727
132	0x3c15b912	0.0091383625
133	0x3f03fe4e	0.51559913
134	0xbe0dcdb3	-0.13848
135	0xbd95665f	-0.07294916
136	0xbe1b253e	-0.15150926
137	0x3cda114d	0.026619578
138	0x3e829b19	0.25508955
139	0x3e83deaa	0.25755817
140	0xbcc5092c	-0.024052225
141	0x3d96934f	0.07352316
142	0xbe5702c2	-0.20997146
143	0xbed64c43	-0.41855058
144	0x3eceb24d	0.40370408
145	0xbe55d175	-0.20880683
146	0x3df636a5	0.12022141
147	0xbdc44eeb	-0.09585365
148	0x3da8cfbc	0.08242747
149	0x3e740562	0.23830178
150	0x3badfe50	0.0053098574
151	0xbcbf0f90	-0.02332285
152	0x3db054f0	0.086099505
153	0x3ec95621	0.39323524
154	0x3e5ef362	0.2177253
155	0x3e2c2b18	0.16813314
156	0x3e2c83ec	0.16847199
157	0xbec54bc0	-0.38534355
158	0xbeb0565b	-0.34440884
159	0xbcecbe5c	-0.028899364
160	0x3db96766	0.09052925
161	0x3c307a54	0.010771353
162	0xbd9c2ee0	-0.07626128
163	0x3d426610	0.047460616
164	0x3dbc36df	0.09190153
165	0x3e034b4d	0.12821694
166	0xbe9737d3	-0.29534778
167	0x3e365f49	0.17809786
168	0x3df4f614	0.11960998
169	0x3e4a3291	0.19745852
170	0xbd2fc802	-0.04291535
171	0xbd0b2888	-0.0339742
172	0x3c8fae21	0.017539086
173	0xbd00c133	-0.03143425
174	0x3ddb8cc5	0.10720209
175	0x3d87bf69	0.066283055
176	0xbe3c3b81	-0.18382074
177	0x3d1dca32	0.038522907
178	0x3dcd3560	0.10019946
179	0x3b8e8175	0.0043489286
180	0xbd2e1546	-0.042500757
181	0x3d94e5ac	0.07270369
182	0xbe26a360	-0.1627326
183	0xbe4e5bb5	-0.20152171
184	0x3d97647b	0.07392212
185	0x3e39c648	0.18142045
186	0xbbbbb28b	-0.005728071
187	0x3d0737a0	0.033012033
188	0x3ddefd29	0.1088813
189	0xbc8ceb34	-0.017201997
190	0x3d685659	0.056722973
191	0xbded01a5	-0.11572579
192	0xbe5fe43f	-0.21864413
193	0x3c14f255	0.00909098
194	0x3e6a6e09	0.22893538
195	0xbe2fb829	-0.17160095
196	0x3ebf77b6	0.3739602
197	0xbe9d44b8	-0.3071649
198	0x3e25efa6	0.162047
199	0xbde6e946	-0.11274962
200	0x3e7269eb	0.23673217
201	0xbda1d3c2	-0.07901718
202	0xbe6a08b5	-0.22854884
203	0x3db2aa06	0.08723836
204	0x3d974221	0.0738566
205	0xbe09e6b4	-0.13466913
206	0xbe1d31a1	-0.15350963
207	0xbf1b47bf	-0.6065635
208	0xbf51a8c5	-0.81898147
209	0xbe3b342b	-0.18281619
210	0xbdf067f6	-0.11738579
211	0x3d60f9f8	0.05492589
212	0xbeaccbba	-0.3374918
213	0x3d06731f	0.03282463
214	0x3d667236	0.056261264
215	0x3d8e2b30	0.06941831
216	0xbe73eea7	-0.23821507
217	0x3e42fab3	0.19040947
218	0xbe4d4b37	-0.20048223
219	0x3eacedc7	0.3377516
220	0x3ea40ea0	0.32042408
221	0xbeb5541a	-0.35415727
222	0x3ac7a113	0.0015230499
223	0xbe23ce91	-0.15996768
224	0x3da1ff2d	0.07909999
225	0x3e29688a	0.16543785
226	0xbee444ca	-0.44583732
227	0x3dc9906b	0.09841999
228	0xbdabe27b	-0.08392807
229	0xbcf8c172	-0.03036568
230	0xbe33c501	-0.1755562
231	0x3c51732d	0.012783808
232	0xbe08f7f3	-0.13375835
233	0x3e62c912	0.22147015
234	0xbe8ed57d	-0.27897254
235	0xbe9529ce	-0.29133457
236	0xbd3cbc44	-0.04607798
237	0x3ce736a6	0.0282243
238	0x3e487dfc	0.19579309
239	0xbe202bc9	-0.15641703
240	0xbc101942	-0.008795084
241	0x3e2137c1	0.15743925
242	0xbd7e0368	-0.062014967
243	0x3c728d26	0.01480416
244	0x3d91ae28	0.07113296
245	0x3e2976d8	0.16549242
246	0x3dac2965	0.08406333
247	0xbdba70a0	-0.09103513
248	0x3e1435b6	0.14473614
249	0xbe8d5f52	-0.27611786
250	0x3ecf51b0	0.4049201
251	0x3e22760e	0.15865347
252	0xbdc828cc	-0.097734064
253	0x3cc67d95	0.024229804
254	0x3e78c25e	0.24292895
255	0x3d539621	0.051656846

context_transformer_0/attention/value/einsum/Einsum;StatefulPartitionedCall/context_transformer_0/attention/value/einsum/Einsum3 f4 [32, 32]
0	0xbdaf05ac	-0.08546004
1	0xbeb420eb	-0.35181364
2	0x3d87a660	0.066235304
3	0xbd5f8eb8	-0.054579467
4	0xbe2daba5	-0.16960008
5	0xbd90fc1b	-0.07079335
6	0xbca8fd62	-0.020628635
7	0x3e0b9a6b	0.13633125
8	0xbed70138	-0.41993117
9	0xbddb805a	-0.107178405
10	0xbf0bc291	-0.5459376
11	0x3e92c1eb	0.28663573
12	0x3e34edb7	0.17668806
13	0xbe76566d	-0.24056406
14	0xbe0cb264	-0.13739926
15	0x3d601c20	0.054714322
16	0x3e88ee69	0.26744393
17	0x3e3f92c0	0.18708324
18	0x3dbdc109	0.09265334
19	0xbe88f128	-0.26746488
20	0x3ec17caa	0.37790424
21	0xbe216646	-0.1576167
22	0x3efa36ef	0.48870036
23	0x3dfce545	0.12348417
24	0x3c86f32f	0.01647338
25	0xbb9935ed	-0.004675618
26	0x3b8462a9	0.0040400815
27	0x3e5b21d8	0.21399629
28	0x3e95c199	0.29249266
29	0xbc2d749b	-0.010586883
30	0x3de361d9	0.11102647
31	0x3c37a7fa	0.011209482
32	0x3de6e544	0.11274198
33	0x3cefdeba	0.029281009
34	0xbde2d43b	-0.11075636
35	0xbea7eab1	-0.32796243
36	0x3eb0ad5a	0.34507257
37	0x3e5d3431	0.2160194
38	0xbd37d6dc	-0.04488264
39	0xbf0c6d02	-0.5485383
40	0xbdf88363	-0.12134435
41	0x3e366b11	0.1781428
42	0x3adffbc6	0.0017088584
43	0xbdede05a	-0.11615057
44	0x3e18d056	0.14923224
45	0x3f1a2195	0.6020749
46	0xbee058a1	-0.43817618
47	0xbe5192a8	-0.20466101
48	0x3e0c90cf	0.13727115
49	0xbda1b187	-0.07895189
50	0xbd830cdb	-0.06398936
51	0xbf278e81	-0.6545182
52	0x3e3e1d2f	0.1856582
53	0xbce1109f	-0.027473746
54	0xbc815075	-0.015785435
55	0x3e579dca	0.21056286
56	0xbcb4f194	-0.02208785
57	0xbd3eeba8	-0.046611458
58	0xbdd14a85	-0.102192916
59	0x3d995f2e	0.07488857
60	0xbe095253	-0.1341031
61	0x3edf1013	0.4356695
62	0xbd3acca9	-0.045605335
63	0xbe2d44b5	-0.16920741
64	0xbd474a8c	-0.048655078
65	0xbee6e435	-0.45095983
66	0x3edb7b5a	0.42867547
67	0xbd9c8b2a	-0.07643731
68	0xbe27755b	-0.16353361
69	0x3e3316ac	0.17489117
70	0x3e1d2fc5	0.15350254
71	0x3f7c1e9e	0.9848422
72	0xbe03289b	-0.12808459
73	0xbe77cbb2	-0.24198797
74	0x3e0527e5	0.130035
75	0x3e8d30f0	0.275764
76	0x3e40b06b	0.18817298
77	0xbe93d792	-0.28875405
78	0x3c028172	0.0079654325
79	0xbe04f85a	-0.12985364
80	0xbe9b5a79	-0.30342463
81	0x3e1498bf	0.14511393
82	0x3e8547dd	0.2603139
83	0x3e445234	0.19171983
84	0xbe62ab56	-0.22135672
85	0xbec40374	-0.38283885
86	0x3ea4f676	0.32219285
87	0x3d801730	0.06254423
88	0xbd99d9f4	-0.075122744
89	0xbe923933	-0.28559265
90	0xbdf3152e	-0.11869274
91	0x3e69ad7a	0.22820082
92	0xbeb5199a	-0.35371095
93	0xbd1e2172	-0.038606115
94	0x3e76988a	0.24081627
95	0xbdc82e1b	-0.09774419
96	0x3d842305	0.06451992
97	0xbeb928e2	-0.36164004
98	0x3da8da4d	0.082447626
99	0xbecb9489	-0.3976176
100	0x3a1e751a	0.0006044671
101	0xbc2535f3	-0.010083663
102	0xbe1a8b0f	-0.15092109
103	0x3b973623	0.004614608
104	0x3e923e5c	0.285632
105	0xbdc122bf	-0.094304554
106	0xbd4eb87e	-0.050468914
107	0xbe0031dc	-0.1251902
108	0x3cf0df5e	0.029403385
109	0xbf133544	-0.5750315
110	0xbd07989b	-0.03310452
111	0xbe1cd730	-0.15316463
112	0xbf01400a	-0.5048834
113	0xbe3ea6fa	-0.18618384
114	0xbd06b337	-0.032885756
115	0xbeccfe76	-0.40037888
116	0xbda89444	-0.082314044
117	0x3d4d2e5d	0.050093044
118	0x3d5722c1	0.05252338
119	0x3e1a5f58	0.15075433
120	0x3d96c6f9	0.0736217
121	0xbe967e1c	-0.2939309
122	0x3e7edd69	0.24889149
123	0xbd963d3b	-0.073358975
124	0x3ecfd539	0.40592363
125	0x3e271e38	0.16320121
126	0xbd05d39a	-0.032672502
127	0xbc6d56a5	-0.01448599
128	0x3c45c476	0.012070766
129	0x3efa1210	0.48841906
130	0xbbe80746	-0.007080945
131	0x3f171a23	0.59024256
132	0x3e7b95c5	0.24568851
133	0xbdaf0893	-0.08546557
134	0xbdb37bd1	-0.087638505
135	0x3dcaa42e	0.09894596
136	0x3eb8c6f6	0.36089295
137	0x3dada279	0.08478255
138	0xbe50f65c	-0.20406479
139	0x3e2b25cf	0.16713642
140	0x3b0cbf3f	0.0021476296
141	0x3e59e560	0.21278906
142	0x3d9a749f	0.07541775
143	0x3e805b0a	0.25069457
144	0x3d876514	0.06611076
145	0xbba23f4e	-0.004951394
146	0x3e3b0edf	0.18267392
147	0xbf75f816	-0.96081674
148	0xbd754940	-0.05988431
149	0x3dfb6d67	0.12276726
150	0xbf3e05cb	-0.7422759
151	0xbdc01710	-0.09379399
152	0x3e4d58aa	0.20053354
153	0xbe984e3f	-0.29747197
154	0xbe3c2518	-0.18373525
155	0xbd86c9be	-0.06581448
156	0x3e119ebc	0.14220709
157	0xbbf3db31	-0.007441901
158	0x3e4dd4a4	0.20100647
159	0x3d7f727d	0.062365044
160	0xbd57df90	-0.05270344
161	0xbe9014f0	-0.28140974
162	0xbce5e67a	-0.028064001
163	0x3df878ff	0.12132453
164	0xbd5a0884	-0.053230777
165	0xbdc2cceb	-0.09511741
166	0xbdd0cbfb	-0.10195156
167	0xbdc6c087	-0.097046904
168	0x3f151dbe	0.5824851
169	0x3e5b4bbc	0.21415609
170	0xbdba9b8a	-0.09111698
171	0x3bed2c85	0.007237973
172	0x3e145a00	0.14487457
173	0xbe1a22e5	-0.15052374
174	0xbe18427b	-0.1486911
175	0xbe14013b	-0.14453594
176	0xbe6650b6	-0.22491726
177	0xbed0bad1	-0.4076753
178	0xbcea1d8d	-0.028578544
179	0x3e6a6296	0.2288917
180	0x3e618757	0.22024284
181	0xbe74857e	-0.23879048
182	0xbec131e4	-0.37733376
183	0x3e75cc2b	0.24003665
184	0xbe675a0b	-0.22592942
185	0x3d51c2d2	0.051211186
186	0xbed2ab19	-0.41146162
187	0x3e9831c0	0.29725456
188	0x3eaa605f	0.3327665
189	0xbef08cf2	-0.46982533
190	0x3da0669b	0.078320704
191	0xbdde21b6	-0.108462736
192	0x3df8017f	0.1210966
193	0x3e4f2311	0.2022822
194	0x3e0fcea6	0.14043674
195	0xbdba86e5	-0.0910776
196	0xbe9be82f	-0.3045058
197	0xbecd316d	-0.4007677
198	0x3ddef458	0.108864486
199	0x3c145720	0.009053975
200	0xbe70d4e0	-0.23518705
201	0x3d39f15d	0.045396198
202	0xbe804d29	-0.2505887
203	0x3e4875b1	0.19576146
204	0x3e81d124	0.25354874
205	0x3be6717c	0.0070325714
206	0x3e6c4cc8	0.23076165
207	0xbe4155dc	-0.18880409
208	0xbebf0a48	-0.3731253
209	0x3c1362cd	0.008995724
210	0xbe208144	-0.15674311
211	0x3ea45748	0.3209784
212	0x3e847805	0.25872818
213	0x3d671df2	0.056425042
214	0x3f306e7b	0.6891858
215	0x3e606904	0.2191506
216	0x3e96a0ab	0.29419455
217	0x3e85f908	0.26166558
218	0xbd8874a5	-0.06662873
219	0x3d2ae7db	0.04172502
220	0x3e2fb407	0.17158519
221	0x3dc222f3	0.09479322
222	0x3e0278e0	0.12741423
223	0x3cf623cd	0.030046368
224	0xbe68dc1b	-0.22740214
225	0xbe7abf82	-0.24487117
226	0x3d9cf7af	0.076644294
227	0x3e7755c4	0.2415381
228	0x3cc933cc	0.024560831
229	0xbe16a99b	-0.14713137
230	0x3e0d2946	0.13785276
231	0x3de909a3	0.11378791
232	0xbe1d5eb0	-0.15368152
233	0xbe39f5e1	-0.18160202
234	0xbea557d6	-0.32293576
235	0xbd3f39ba	-0.04668591
236	0xbe8b33e2	-0.2718802
237	0xbe8bbc9e	-0.2729234
238	0x3e9d35cb	0.30705103
239	0x3e1c7264	0.15278012
240	0xbd6e2cce	-0.058148198
241	0x3eb86d5b	0.36020932
242	0x3e3b5342	0.18293479
243	0x3efa6e15	0.4891211
244	0x3e072e50	0.1320126
245	0xbeb33be1	-0.3500662
246	0xbde50970	-0.11183441
247	0xbea9cba1	-0.3316317
248	0x3dc08b4b	0.09401568
249	0x3d51d66a	0.05122987
250	0xbd8764f0	-0.06611049
251	0xbedc23cb	-0.42996058
252	0xbdf60565	-0.12012748
253	0xbe7c341d	-0.24629255
254	0xbcc4eb8e	-0.024038102
255	0x3e6afa56	0.22947058

context_transformer_0/kq_shared_bottleneck/dense/einsum/Einsum;StatefulPartitionedCall/context_transformer_0/kq_shared_bottleneck/dense/einsum/Einsum f4 [32, 32]
0	0xbd424b26	-0.04743495
1	0xbc69fc02	-0.014281275
2	0xbd727705	-0.059195537
3	0x3db49671	0.08817757
4	0x3ea84334	0.32863772
5	0x3ef70fc3	0.48254213
6	0x3ec4fefc	0.38475788
7	0xbe1ea805	-0.15493782
8	0xbe830e12	-0.25596672
9	0x3e82c3b7	0.25539944
10	0x3e633f1d	0.22192045
11	0x3e30da84	0.17270857
12	0x3c61c416	0.013779661
13	0xbe1555e2	-0.14583543
14	0x3e744e04	0.23857886
15	0x3e897686	0.2684824
16	0xbe100661	-0.14064933
17	0x3da95a80	0.08269215
18	0xbda63322	-0.081152216
19	0xbf30243e	-0.688053
20	0xbd255ca5	-0.040371556
21	0x3ecf7aa1	0.40523246
22	0xbe509fd7	-0.20373474
23	0xbeb23596	-0.34806508
24	0xbeb5057e	-0.35355753
25	0xbe8ff547	-0.2811682
26	0x3ebd3b42	0.36959273
27	0x3dd3a03e	0.10333298
28	0x3d067cac	0.03283374
29	0x3e792428	0.24330199
30	0xbef6dfd0	-0.4821763
31	0xbd8bedec	-0.06832489
32	0xbd9f23a2	-0.07770468
33	0xbd9b724d	-0.075901605
34	0xbd63a8d1	-0.055580918
35	0x3d62b732	0.05535049
36	0x3ec1cbe5	0.37850872
37	0x3ca215f1	0.019785853
38	0x3d81d727	0.06339865
39	0x3e1b00e3	0.15137057
40	0x3d953154	0.07284799
41	0x3e27bb41	0.16380025
42	0x3cfbc6ac	0.030734383
43	0xbe258719	-0.16164817
44	0xbda64507	-0.08118635
45	0x3d91610d	0.07098589
46	0xbe85b6ca	-0.2611602
47	0xbc0611c6	-0.008182948
48	0xbe032f65	-0.12811048
49	0xbe092189	-0.13391699
50	0xbeb0f06a	-0.3455842
51	0x3c8a74d8	0.016901419
52	0x3dacb0d0	0.08432162
53	0xbe3b98d7	-0.18320023
54	0x3e988cdf	0.29794976
55	0x3e266ae4	0.16251713
56	0x3eff1b80	0.49825668
57	0xbd8dc772	-0.06922807
58	0xbdd942c3	-0.10608437
59	0xbd5d2df7	-0.053998914
60	0x3e2ed2eb	0.17072646
61	0x3e2074bd	0.15669532
62	0x3e38aa02	0.18033603
63	0x3bb7cd03	0.005609156
64	0x38f9a0b9	0.00011903182
65	0x3e898ea0	0.26866627
66	0x3dcb298f	0.09920036
67	0x3e2dfb96	0.16990504
68	0xbe34e5ad	-0.1766574
69	0x3dc5bded	0.09655366
70	0xbc124125	-0.0089266645
71	0x3da6338f	0.08115303
72	0x3e8224ec	0.25418794
73	0xbd2fd5d7	-0.042928543
74	0xbe10809a	-0.14111558
75	0xbc95dda8	-0.01829417
76	0xbd14fd64	-0.036374465
77	0x3e680ee6	0.22661933
78	0xbdd06cba	-0.10176988
79	0x3f019278	0.5061412
80	0x3e904ce5	0.28183666
81	0x3cd1364f	0.025538592
82	0x3ed9e68b	0.42558703
83	0xbf629359	-0.88506085
84	0x3cda38cf	0.026638417
85	0x3e79e5f9	0.24404134
86	0xbe86b6eb	-0.2631143
87	0x3cb4a863	0.02205295
88	0x3eb7c038	0.3588884
89	0xbe8d6caa	-0.27621967
90	0x3cf44244	0.029816754
91	0x3e9df109	0.30847958
92	0xbaee6a2d	-0.0018189602
93	0x3c40d0a2	0.011768492
94	0xbd354cb2	-0.044262595
95	0x3c3f9694	0.0116936155
96	0x3e85e6ac	0.2615255
97	0x3eea89e0	0.45808315
98	0xbeb7c95f	-0.3589582
99	0x3e6b78b3	0.22995262
100	0xbe0784e1	-0.13234283
101	0xbdf0a680	-0.11750507
102	0x3d7a5df0	0.061124742
103	0x3e3402fc	0.17579263
104	0xbefe7d96	-0.4970519
105	0x3e55f44e	0.20893976
106	0x3ea19023	0.3155528
107	0x3e1b35bd	0.15157218
108	0xbdaf5b5c	-0.08562347
109	0xbdc430b5	-0.09579603
110	0x3e0350c2	0.12823775
111	0x3d98de26	0.074642465
112	0xbe40d0de	-0.18829677
113	0xbdaebbe1	-0.08531929
114	0xbbb04468	-0.0053792484
115	0x3deadbbc	0.11467692
116	0xbe0aa680	-0.13540077
117	0x3eaee6ff	0.3416061
118	0x3ca22373	0.019792294
119	0x3bb430ca	0.00549898
120	0x3d00f6d6	0.0314854
121	0xbd6f471c	-0.058417425
122	0x3e53ab7f	0.2067089
123	0x3ed9db59	0.4255016
124	0xbe486be5	-0.19572408
125	0x3e86d679	0.26335505
126	0xbe9fdfa5	-0.31225315
127	0xbe88ca4d	-0.26716843
128	0x3c7ceb88	0.015437014
129	0x3d6f3ef5	0.05840965
130	0xbe2549e9	-0.16141476
131	0xbdf1ec5e	-0.118126616
132	0x3db6d4e0	0.089273214
133	0xbd51d6fd	-0.05123042
134	0xbe1c4625	-0.15261133
135	0xbd95fdc4	-0.073237926
136	0x3d9b2526	0.07575445
137	0xbeb88442	-0.36038405
138	0xbe35a47d	-0.17738529
139	0x3e32d114	0.1746257
140	0xbde3c2c5	-0.11121134
141	0xbce937aa	-0.028468926
142	0xbec40050	-0.38281488
143	0xbc880906	-0.016605865
144	0x3d4c89a2	0.049935944
145	0x3db0132a	0.08597405
146	0xbee76f08	-0.45201898
147	0x3d8fc830	0.070206046
148	0x3e46491c	0.19363827
149	0xbe83a322	-0.25710398
150	0x3ed5c060	0.41748333
151	0x3e241c37	0.16026388
152	0xbd68112e	-0.05665701
153	0xbe056382	-0.1302624
154	0x3e326409	0.17420973
155	0x3e6b84bb	0.22999851
156	0xbe0d8e3e	-0.13823792
157	0x3d87d669	0.06632692
158	0x3e79ec58	0.24406564
159	0xbd52b4e4	-0.051442042
160	0x3b5e034b	0.0033876474
161	0x3d4b22d2	0.049593754
162	0xbeabe799	-0.33575132
163	0x3d063ab8	0.032770842
164	0x3e3af7c6	0.1825858
165	0xbe048296	-0.1294044
166	0x3d61336f	0.05498069
167	0xbe16bf93	-0.14721517
168	0xbea1b82b	-0.31585822
169	0x3ec092d6	0.37612027
170	0xbe571b9d	-0.21006627
171	0x3e34843c	0.17628568
172	0xbca39ef4	-0.019973256
173	0x3e55a2d5	0.20862897
174	0x3e1f99b2	0.15585974
175	0x3d2889ad	0.041146923
176	0x3c2e8f1c	0.010654237
177	0xbe455ff8	-0.1927489
178	0xbed8f256	-0.42372388
179	0x3eb2e8ba	0.3494318
180	0xbe2e8547	-0.17043029
181	0xbddad550	-0.106852174
182	0xbd941607	-0.07230764
183	0xbd8a1b05	-0.06743435
184	0x3dfe94a4	0.12430695
185	0x3e20a00b	0.15686052
186	0xbe839df7	-0.25706455
187	0x3d000308	0.03125289
188	0x3dd9c143	0.10632565
189	0x3e09815c	0.13428253
190	0xba7c57a5	-0.0009626097
191	0xbd0fc5d8	-0.035100788
192	0x3dd5a35a	0.104315475
193	0x3eef773c	0.46770656
194	0xbe1de6ed	-0.15420122
195	0x3e68c1ca	0.22730175
196	0x3e88c6ef	0.26714274
197	0xbd00d5a0	-0.03145373
198	0xbd0d7600	-0.03453636
199	0xbe6c3e15	-0.23070557
200	0x3cfc9664	0.03083343
201	0x3d8e240d	0.0694047
202	0x3c813605	0.015772829
203	0x3d738017	0.059448328
204	0x3d45912d	0.048234154
205	0x3efbb3cd	0.49160615
206	0x3e5e518e	0.21710798
207	0xbe3b2222	-0.1827474
208	0x3e18944d	0.14900322
209	0xbeb9083b	-0.36139092
210	0x3ef47568	0.47745824
211	0x3e9bf0c5	0.3045713
212	0xbdb239f0	-0.08702457
213	0x3e382bd9	0.17985477
214	0xbe5a23c1	-0.21302702
215	0x3cad09b3	0.021122789
216	0x3ea5b6cc	0.32366025
217	0x3e19fc46	0.15037641
218	0xbf24aa5d	-0.64322454
219	0xbdd0d3da	-0.101966575
220	0x3e3f2d85	0.18669708
221	0x3e524ac5	0.20536335
222	0x3d1dad4b	0.038495343
223	0xbdda99b6	-0.10673849
224	0xbe1dadc7	-0.15398322
225	0x3e185da4	0.14879471
226	0xbcf76cce	-0.03020325
227	0xbcde7c2d	-0.027158821
228	0x3e54984e	0.20761225
229	0xbe39739f	-0.18110512
230	0x3e9e9524	0.3097316
231	0x3e016171	0.12634827
232	0xbe51428a	-0.20435539
233	0x3e1fd715	0.15609391
234	0xbacd7e7a	-0.0015677952
235	0xbf0e0d50	-0.55489063
236	0x3dd80c35	0.10549203
237	0xbca03458	-0.01955621
238	0xbd72aa12	-0.059244223
239	0x3ce03748	0.02737011
240	0xbc709dc7	-0.014686055
241	0x3d2b8dce	0.041883282
242	0x3b8bf2fd	0.00427091
243	0xbeb1e0a4	-0.347417
244	0x3ed980c5	0.42481056
245	0xbef49a04	-0.47773755
246	0x3df4e9f4	0.119586855
247	0x3dfa4866	0.1222084
248	0x3f1f828f	0.6230859
249	0xbdbc6e45	-0.0920072
250	0xbe48026e	-0.19532177
251	0xbe30dc01	-0.17271425
252	0x3e9c04e0	0.3047247
253	0xbd1c6954	-0.038186386
254	0x3dd553e0	0.104163885
255	0x3d3d2a00	0.046182632
